Found 20300 non-validated image filenames belonging to 29 classes.
Found 1450 non-validated image filenames belonging to 29 classes.
Found 15657 non-validated image filenames belonging to 29 classes.
Model: "functional_1"
__________________________________________________________________________________________________
Layer (type)                    Output Shape         Param #     Connected to                     
==================================================================================================
input_1 (InputLayer)            [(None, 256, 256, 3) 0                                            
__________________________________________________________________________________________________
zero_padding2d (ZeroPadding2D)  (None, 262, 262, 3)  0           input_1[0][0]                    
__________________________________________________________________________________________________
conv1/conv (Conv2D)             (None, 128, 128, 64) 9408        zero_padding2d[0][0]             
__________________________________________________________________________________________________
conv1/bn (BatchNormalization)   (None, 128, 128, 64) 256         conv1/conv[0][0]                 
__________________________________________________________________________________________________
conv1/relu (Activation)         (None, 128, 128, 64) 0           conv1/bn[0][0]                   
__________________________________________________________________________________________________
zero_padding2d_1 (ZeroPadding2D (None, 130, 130, 64) 0           conv1/relu[0][0]                 
__________________________________________________________________________________________________
pool1 (MaxPooling2D)            (None, 64, 64, 64)   0           zero_padding2d_1[0][0]           
__________________________________________________________________________________________________
conv2_block1_0_bn (BatchNormali (None, 64, 64, 64)   256         pool1[0][0]                      
__________________________________________________________________________________________________
conv2_block1_0_relu (Activation (None, 64, 64, 64)   0           conv2_block1_0_bn[0][0]          
__________________________________________________________________________________________________
conv2_block1_1_conv (Conv2D)    (None, 64, 64, 128)  8192        conv2_block1_0_relu[0][0]        
__________________________________________________________________________________________________
conv2_block1_1_bn (BatchNormali (None, 64, 64, 128)  512         conv2_block1_1_conv[0][0]        
__________________________________________________________________________________________________
conv2_block1_1_relu (Activation (None, 64, 64, 128)  0           conv2_block1_1_bn[0][0]          
__________________________________________________________________________________________________
conv2_block1_2_conv (Conv2D)    (None, 64, 64, 32)   36864       conv2_block1_1_relu[0][0]        
__________________________________________________________________________________________________
conv2_block1_concat (Concatenat (None, 64, 64, 96)   0           pool1[0][0]                      
                                                                 conv2_block1_2_conv[0][0]        
__________________________________________________________________________________________________
conv2_block2_0_bn (BatchNormali (None, 64, 64, 96)   384         conv2_block1_concat[0][0]        
__________________________________________________________________________________________________
conv2_block2_0_relu (Activation (None, 64, 64, 96)   0           conv2_block2_0_bn[0][0]          
__________________________________________________________________________________________________
conv2_block2_1_conv (Conv2D)    (None, 64, 64, 128)  12288       conv2_block2_0_relu[0][0]        
__________________________________________________________________________________________________
conv2_block2_1_bn (BatchNormali (None, 64, 64, 128)  512         conv2_block2_1_conv[0][0]        
__________________________________________________________________________________________________
conv2_block2_1_relu (Activation (None, 64, 64, 128)  0           conv2_block2_1_bn[0][0]          
__________________________________________________________________________________________________
conv2_block2_2_conv (Conv2D)    (None, 64, 64, 32)   36864       conv2_block2_1_relu[0][0]        
__________________________________________________________________________________________________
conv2_block2_concat (Concatenat (None, 64, 64, 128)  0           conv2_block1_concat[0][0]        
                                                                 conv2_block2_2_conv[0][0]        
__________________________________________________________________________________________________
conv2_block3_0_bn (BatchNormali (None, 64, 64, 128)  512         conv2_block2_concat[0][0]        
__________________________________________________________________________________________________
conv2_block3_0_relu (Activation (None, 64, 64, 128)  0           conv2_block3_0_bn[0][0]          
__________________________________________________________________________________________________
conv2_block3_1_conv (Conv2D)    (None, 64, 64, 128)  16384       conv2_block3_0_relu[0][0]        
__________________________________________________________________________________________________
conv2_block3_1_bn (BatchNormali (None, 64, 64, 128)  512         conv2_block3_1_conv[0][0]        
__________________________________________________________________________________________________
conv2_block3_1_relu (Activation (None, 64, 64, 128)  0           conv2_block3_1_bn[0][0]          
__________________________________________________________________________________________________
conv2_block3_2_conv (Conv2D)    (None, 64, 64, 32)   36864       conv2_block3_1_relu[0][0]        
__________________________________________________________________________________________________
conv2_block3_concat (Concatenat (None, 64, 64, 160)  0           conv2_block2_concat[0][0]        
                                                                 conv2_block3_2_conv[0][0]        
__________________________________________________________________________________________________
conv2_block4_0_bn (BatchNormali (None, 64, 64, 160)  640         conv2_block3_concat[0][0]        
__________________________________________________________________________________________________
conv2_block4_0_relu (Activation (None, 64, 64, 160)  0           conv2_block4_0_bn[0][0]          
__________________________________________________________________________________________________
conv2_block4_1_conv (Conv2D)    (None, 64, 64, 128)  20480       conv2_block4_0_relu[0][0]        
__________________________________________________________________________________________________
conv2_block4_1_bn (BatchNormali (None, 64, 64, 128)  512         conv2_block4_1_conv[0][0]        
__________________________________________________________________________________________________
conv2_block4_1_relu (Activation (None, 64, 64, 128)  0           conv2_block4_1_bn[0][0]          
__________________________________________________________________________________________________
conv2_block4_2_conv (Conv2D)    (None, 64, 64, 32)   36864       conv2_block4_1_relu[0][0]        
__________________________________________________________________________________________________
conv2_block4_concat (Concatenat (None, 64, 64, 192)  0           conv2_block3_concat[0][0]        
                                                                 conv2_block4_2_conv[0][0]        
__________________________________________________________________________________________________
conv2_block5_0_bn (BatchNormali (None, 64, 64, 192)  768         conv2_block4_concat[0][0]        
__________________________________________________________________________________________________
conv2_block5_0_relu (Activation (None, 64, 64, 192)  0           conv2_block5_0_bn[0][0]          
__________________________________________________________________________________________________
conv2_block5_1_conv (Conv2D)    (None, 64, 64, 128)  24576       conv2_block5_0_relu[0][0]        
__________________________________________________________________________________________________
conv2_block5_1_bn (BatchNormali (None, 64, 64, 128)  512         conv2_block5_1_conv[0][0]        
__________________________________________________________________________________________________
conv2_block5_1_relu (Activation (None, 64, 64, 128)  0           conv2_block5_1_bn[0][0]          
__________________________________________________________________________________________________
conv2_block5_2_conv (Conv2D)    (None, 64, 64, 32)   36864       conv2_block5_1_relu[0][0]        
__________________________________________________________________________________________________
conv2_block5_concat (Concatenat (None, 64, 64, 224)  0           conv2_block4_concat[0][0]        
                                                                 conv2_block5_2_conv[0][0]        
__________________________________________________________________________________________________
conv2_block6_0_bn (BatchNormali (None, 64, 64, 224)  896         conv2_block5_concat[0][0]        
__________________________________________________________________________________________________
conv2_block6_0_relu (Activation (None, 64, 64, 224)  0           conv2_block6_0_bn[0][0]          
__________________________________________________________________________________________________
conv2_block6_1_conv (Conv2D)    (None, 64, 64, 128)  28672       conv2_block6_0_relu[0][0]        
__________________________________________________________________________________________________
conv2_block6_1_bn (BatchNormali (None, 64, 64, 128)  512         conv2_block6_1_conv[0][0]        
__________________________________________________________________________________________________
conv2_block6_1_relu (Activation (None, 64, 64, 128)  0           conv2_block6_1_bn[0][0]          
__________________________________________________________________________________________________
conv2_block6_2_conv (Conv2D)    (None, 64, 64, 32)   36864       conv2_block6_1_relu[0][0]        
__________________________________________________________________________________________________
conv2_block6_concat (Concatenat (None, 64, 64, 256)  0           conv2_block5_concat[0][0]        
                                                                 conv2_block6_2_conv[0][0]        
__________________________________________________________________________________________________
pool2_bn (BatchNormalization)   (None, 64, 64, 256)  1024        conv2_block6_concat[0][0]        
__________________________________________________________________________________________________
pool2_relu (Activation)         (None, 64, 64, 256)  0           pool2_bn[0][0]                   
__________________________________________________________________________________________________
pool2_conv (Conv2D)             (None, 64, 64, 128)  32768       pool2_relu[0][0]                 
__________________________________________________________________________________________________
pool2_pool (AveragePooling2D)   (None, 32, 32, 128)  0           pool2_conv[0][0]                 
__________________________________________________________________________________________________
conv3_block1_0_bn (BatchNormali (None, 32, 32, 128)  512         pool2_pool[0][0]                 
__________________________________________________________________________________________________
conv3_block1_0_relu (Activation (None, 32, 32, 128)  0           conv3_block1_0_bn[0][0]          
__________________________________________________________________________________________________
conv3_block1_1_conv (Conv2D)    (None, 32, 32, 128)  16384       conv3_block1_0_relu[0][0]        
__________________________________________________________________________________________________
conv3_block1_1_bn (BatchNormali (None, 32, 32, 128)  512         conv3_block1_1_conv[0][0]        
__________________________________________________________________________________________________
conv3_block1_1_relu (Activation (None, 32, 32, 128)  0           conv3_block1_1_bn[0][0]          
__________________________________________________________________________________________________
conv3_block1_2_conv (Conv2D)    (None, 32, 32, 32)   36864       conv3_block1_1_relu[0][0]        
__________________________________________________________________________________________________
conv3_block1_concat (Concatenat (None, 32, 32, 160)  0           pool2_pool[0][0]                 
                                                                 conv3_block1_2_conv[0][0]        
__________________________________________________________________________________________________
conv3_block2_0_bn (BatchNormali (None, 32, 32, 160)  640         conv3_block1_concat[0][0]        
__________________________________________________________________________________________________
conv3_block2_0_relu (Activation (None, 32, 32, 160)  0           conv3_block2_0_bn[0][0]          
__________________________________________________________________________________________________
conv3_block2_1_conv (Conv2D)    (None, 32, 32, 128)  20480       conv3_block2_0_relu[0][0]        
__________________________________________________________________________________________________
conv3_block2_1_bn (BatchNormali (None, 32, 32, 128)  512         conv3_block2_1_conv[0][0]        
__________________________________________________________________________________________________
conv3_block2_1_relu (Activation (None, 32, 32, 128)  0           conv3_block2_1_bn[0][0]          
__________________________________________________________________________________________________
conv3_block2_2_conv (Conv2D)    (None, 32, 32, 32)   36864       conv3_block2_1_relu[0][0]        
__________________________________________________________________________________________________
conv3_block2_concat (Concatenat (None, 32, 32, 192)  0           conv3_block1_concat[0][0]        
                                                                 conv3_block2_2_conv[0][0]        
__________________________________________________________________________________________________
conv3_block3_0_bn (BatchNormali (None, 32, 32, 192)  768         conv3_block2_concat[0][0]        
__________________________________________________________________________________________________
conv3_block3_0_relu (Activation (None, 32, 32, 192)  0           conv3_block3_0_bn[0][0]          
__________________________________________________________________________________________________
conv3_block3_1_conv (Conv2D)    (None, 32, 32, 128)  24576       conv3_block3_0_relu[0][0]        
__________________________________________________________________________________________________
conv3_block3_1_bn (BatchNormali (None, 32, 32, 128)  512         conv3_block3_1_conv[0][0]        
__________________________________________________________________________________________________
conv3_block3_1_relu (Activation (None, 32, 32, 128)  0           conv3_block3_1_bn[0][0]          
__________________________________________________________________________________________________
conv3_block3_2_conv (Conv2D)    (None, 32, 32, 32)   36864       conv3_block3_1_relu[0][0]        
__________________________________________________________________________________________________
conv3_block3_concat (Concatenat (None, 32, 32, 224)  0           conv3_block2_concat[0][0]        
                                                                 conv3_block3_2_conv[0][0]        
__________________________________________________________________________________________________
conv3_block4_0_bn (BatchNormali (None, 32, 32, 224)  896         conv3_block3_concat[0][0]        
__________________________________________________________________________________________________
conv3_block4_0_relu (Activation (None, 32, 32, 224)  0           conv3_block4_0_bn[0][0]          
__________________________________________________________________________________________________
conv3_block4_1_conv (Conv2D)    (None, 32, 32, 128)  28672       conv3_block4_0_relu[0][0]        
__________________________________________________________________________________________________
conv3_block4_1_bn (BatchNormali (None, 32, 32, 128)  512         conv3_block4_1_conv[0][0]        
__________________________________________________________________________________________________
conv3_block4_1_relu (Activation (None, 32, 32, 128)  0           conv3_block4_1_bn[0][0]          
__________________________________________________________________________________________________
conv3_block4_2_conv (Conv2D)    (None, 32, 32, 32)   36864       conv3_block4_1_relu[0][0]        
__________________________________________________________________________________________________
conv3_block4_concat (Concatenat (None, 32, 32, 256)  0           conv3_block3_concat[0][0]        
                                                                 conv3_block4_2_conv[0][0]        
__________________________________________________________________________________________________
conv3_block5_0_bn (BatchNormali (None, 32, 32, 256)  1024        conv3_block4_concat[0][0]        
__________________________________________________________________________________________________
conv3_block5_0_relu (Activation (None, 32, 32, 256)  0           conv3_block5_0_bn[0][0]          
__________________________________________________________________________________________________
conv3_block5_1_conv (Conv2D)    (None, 32, 32, 128)  32768       conv3_block5_0_relu[0][0]        
__________________________________________________________________________________________________
conv3_block5_1_bn (BatchNormali (None, 32, 32, 128)  512         conv3_block5_1_conv[0][0]        
__________________________________________________________________________________________________
conv3_block5_1_relu (Activation (None, 32, 32, 128)  0           conv3_block5_1_bn[0][0]          
__________________________________________________________________________________________________
conv3_block5_2_conv (Conv2D)    (None, 32, 32, 32)   36864       conv3_block5_1_relu[0][0]        
__________________________________________________________________________________________________
conv3_block5_concat (Concatenat (None, 32, 32, 288)  0           conv3_block4_concat[0][0]        
                                                                 conv3_block5_2_conv[0][0]        
__________________________________________________________________________________________________
conv3_block6_0_bn (BatchNormali (None, 32, 32, 288)  1152        conv3_block5_concat[0][0]        
__________________________________________________________________________________________________
conv3_block6_0_relu (Activation (None, 32, 32, 288)  0           conv3_block6_0_bn[0][0]          
__________________________________________________________________________________________________
conv3_block6_1_conv (Conv2D)    (None, 32, 32, 128)  36864       conv3_block6_0_relu[0][0]        
__________________________________________________________________________________________________
conv3_block6_1_bn (BatchNormali (None, 32, 32, 128)  512         conv3_block6_1_conv[0][0]        
__________________________________________________________________________________________________
conv3_block6_1_relu (Activation (None, 32, 32, 128)  0           conv3_block6_1_bn[0][0]          
__________________________________________________________________________________________________
conv3_block6_2_conv (Conv2D)    (None, 32, 32, 32)   36864       conv3_block6_1_relu[0][0]        
__________________________________________________________________________________________________
conv3_block6_concat (Concatenat (None, 32, 32, 320)  0           conv3_block5_concat[0][0]        
                                                                 conv3_block6_2_conv[0][0]        
__________________________________________________________________________________________________
conv3_block7_0_bn (BatchNormali (None, 32, 32, 320)  1280        conv3_block6_concat[0][0]        
__________________________________________________________________________________________________
conv3_block7_0_relu (Activation (None, 32, 32, 320)  0           conv3_block7_0_bn[0][0]          
__________________________________________________________________________________________________
conv3_block7_1_conv (Conv2D)    (None, 32, 32, 128)  40960       conv3_block7_0_relu[0][0]        
__________________________________________________________________________________________________
conv3_block7_1_bn (BatchNormali (None, 32, 32, 128)  512         conv3_block7_1_conv[0][0]        
__________________________________________________________________________________________________
conv3_block7_1_relu (Activation (None, 32, 32, 128)  0           conv3_block7_1_bn[0][0]          
__________________________________________________________________________________________________
conv3_block7_2_conv (Conv2D)    (None, 32, 32, 32)   36864       conv3_block7_1_relu[0][0]        
__________________________________________________________________________________________________
conv3_block7_concat (Concatenat (None, 32, 32, 352)  0           conv3_block6_concat[0][0]        
                                                                 conv3_block7_2_conv[0][0]        
__________________________________________________________________________________________________
conv3_block8_0_bn (BatchNormali (None, 32, 32, 352)  1408        conv3_block7_concat[0][0]        
__________________________________________________________________________________________________
conv3_block8_0_relu (Activation (None, 32, 32, 352)  0           conv3_block8_0_bn[0][0]          
__________________________________________________________________________________________________
conv3_block8_1_conv (Conv2D)    (None, 32, 32, 128)  45056       conv3_block8_0_relu[0][0]        
__________________________________________________________________________________________________
conv3_block8_1_bn (BatchNormali (None, 32, 32, 128)  512         conv3_block8_1_conv[0][0]        
__________________________________________________________________________________________________
conv3_block8_1_relu (Activation (None, 32, 32, 128)  0           conv3_block8_1_bn[0][0]          
__________________________________________________________________________________________________
conv3_block8_2_conv (Conv2D)    (None, 32, 32, 32)   36864       conv3_block8_1_relu[0][0]        
__________________________________________________________________________________________________
conv3_block8_concat (Concatenat (None, 32, 32, 384)  0           conv3_block7_concat[0][0]        
                                                                 conv3_block8_2_conv[0][0]        
__________________________________________________________________________________________________
conv3_block9_0_bn (BatchNormali (None, 32, 32, 384)  1536        conv3_block8_concat[0][0]        
__________________________________________________________________________________________________
conv3_block9_0_relu (Activation (None, 32, 32, 384)  0           conv3_block9_0_bn[0][0]          
__________________________________________________________________________________________________
conv3_block9_1_conv (Conv2D)    (None, 32, 32, 128)  49152       conv3_block9_0_relu[0][0]        
__________________________________________________________________________________________________
conv3_block9_1_bn (BatchNormali (None, 32, 32, 128)  512         conv3_block9_1_conv[0][0]        
__________________________________________________________________________________________________
conv3_block9_1_relu (Activation (None, 32, 32, 128)  0           conv3_block9_1_bn[0][0]          
__________________________________________________________________________________________________
conv3_block9_2_conv (Conv2D)    (None, 32, 32, 32)   36864       conv3_block9_1_relu[0][0]        
__________________________________________________________________________________________________
conv3_block9_concat (Concatenat (None, 32, 32, 416)  0           conv3_block8_concat[0][0]        
                                                                 conv3_block9_2_conv[0][0]        
__________________________________________________________________________________________________
conv3_block10_0_bn (BatchNormal (None, 32, 32, 416)  1664        conv3_block9_concat[0][0]        
__________________________________________________________________________________________________
conv3_block10_0_relu (Activatio (None, 32, 32, 416)  0           conv3_block10_0_bn[0][0]         
__________________________________________________________________________________________________
conv3_block10_1_conv (Conv2D)   (None, 32, 32, 128)  53248       conv3_block10_0_relu[0][0]       
__________________________________________________________________________________________________
conv3_block10_1_bn (BatchNormal (None, 32, 32, 128)  512         conv3_block10_1_conv[0][0]       
__________________________________________________________________________________________________
conv3_block10_1_relu (Activatio (None, 32, 32, 128)  0           conv3_block10_1_bn[0][0]         
__________________________________________________________________________________________________
conv3_block10_2_conv (Conv2D)   (None, 32, 32, 32)   36864       conv3_block10_1_relu[0][0]       
__________________________________________________________________________________________________
conv3_block10_concat (Concatena (None, 32, 32, 448)  0           conv3_block9_concat[0][0]        
                                                                 conv3_block10_2_conv[0][0]       
__________________________________________________________________________________________________
conv3_block11_0_bn (BatchNormal (None, 32, 32, 448)  1792        conv3_block10_concat[0][0]       
__________________________________________________________________________________________________
conv3_block11_0_relu (Activatio (None, 32, 32, 448)  0           conv3_block11_0_bn[0][0]         
__________________________________________________________________________________________________
conv3_block11_1_conv (Conv2D)   (None, 32, 32, 128)  57344       conv3_block11_0_relu[0][0]       
__________________________________________________________________________________________________
conv3_block11_1_bn (BatchNormal (None, 32, 32, 128)  512         conv3_block11_1_conv[0][0]       
__________________________________________________________________________________________________
conv3_block11_1_relu (Activatio (None, 32, 32, 128)  0           conv3_block11_1_bn[0][0]         
__________________________________________________________________________________________________
conv3_block11_2_conv (Conv2D)   (None, 32, 32, 32)   36864       conv3_block11_1_relu[0][0]       
__________________________________________________________________________________________________
conv3_block11_concat (Concatena (None, 32, 32, 480)  0           conv3_block10_concat[0][0]       
                                                                 conv3_block11_2_conv[0][0]       
__________________________________________________________________________________________________
conv3_block12_0_bn (BatchNormal (None, 32, 32, 480)  1920        conv3_block11_concat[0][0]       
__________________________________________________________________________________________________
conv3_block12_0_relu (Activatio (None, 32, 32, 480)  0           conv3_block12_0_bn[0][0]         
__________________________________________________________________________________________________
conv3_block12_1_conv (Conv2D)   (None, 32, 32, 128)  61440       conv3_block12_0_relu[0][0]       
__________________________________________________________________________________________________
conv3_block12_1_bn (BatchNormal (None, 32, 32, 128)  512         conv3_block12_1_conv[0][0]       
__________________________________________________________________________________________________
conv3_block12_1_relu (Activatio (None, 32, 32, 128)  0           conv3_block12_1_bn[0][0]         
__________________________________________________________________________________________________
conv3_block12_2_conv (Conv2D)   (None, 32, 32, 32)   36864       conv3_block12_1_relu[0][0]       
__________________________________________________________________________________________________
conv3_block12_concat (Concatena (None, 32, 32, 512)  0           conv3_block11_concat[0][0]       
                                                                 conv3_block12_2_conv[0][0]       
__________________________________________________________________________________________________
pool3_bn (BatchNormalization)   (None, 32, 32, 512)  2048        conv3_block12_concat[0][0]       
__________________________________________________________________________________________________
pool3_relu (Activation)         (None, 32, 32, 512)  0           pool3_bn[0][0]                   
__________________________________________________________________________________________________
pool3_conv (Conv2D)             (None, 32, 32, 256)  131072      pool3_relu[0][0]                 
__________________________________________________________________________________________________
pool3_pool (AveragePooling2D)   (None, 16, 16, 256)  0           pool3_conv[0][0]                 
__________________________________________________________________________________________________
conv4_block1_0_bn (BatchNormali (None, 16, 16, 256)  1024        pool3_pool[0][0]                 
__________________________________________________________________________________________________
conv4_block1_0_relu (Activation (None, 16, 16, 256)  0           conv4_block1_0_bn[0][0]          
__________________________________________________________________________________________________
conv4_block1_1_conv (Conv2D)    (None, 16, 16, 128)  32768       conv4_block1_0_relu[0][0]        
__________________________________________________________________________________________________
conv4_block1_1_bn (BatchNormali (None, 16, 16, 128)  512         conv4_block1_1_conv[0][0]        
__________________________________________________________________________________________________
conv4_block1_1_relu (Activation (None, 16, 16, 128)  0           conv4_block1_1_bn[0][0]          
__________________________________________________________________________________________________
conv4_block1_2_conv (Conv2D)    (None, 16, 16, 32)   36864       conv4_block1_1_relu[0][0]        
__________________________________________________________________________________________________
conv4_block1_concat (Concatenat (None, 16, 16, 288)  0           pool3_pool[0][0]                 
                                                                 conv4_block1_2_conv[0][0]        
__________________________________________________________________________________________________
conv4_block2_0_bn (BatchNormali (None, 16, 16, 288)  1152        conv4_block1_concat[0][0]        
__________________________________________________________________________________________________
conv4_block2_0_relu (Activation (None, 16, 16, 288)  0           conv4_block2_0_bn[0][0]          
__________________________________________________________________________________________________
conv4_block2_1_conv (Conv2D)    (None, 16, 16, 128)  36864       conv4_block2_0_relu[0][0]        
__________________________________________________________________________________________________
conv4_block2_1_bn (BatchNormali (None, 16, 16, 128)  512         conv4_block2_1_conv[0][0]        
__________________________________________________________________________________________________
conv4_block2_1_relu (Activation (None, 16, 16, 128)  0           conv4_block2_1_bn[0][0]          
__________________________________________________________________________________________________
conv4_block2_2_conv (Conv2D)    (None, 16, 16, 32)   36864       conv4_block2_1_relu[0][0]        
__________________________________________________________________________________________________
conv4_block2_concat (Concatenat (None, 16, 16, 320)  0           conv4_block1_concat[0][0]        
                                                                 conv4_block2_2_conv[0][0]        
__________________________________________________________________________________________________
conv4_block3_0_bn (BatchNormali (None, 16, 16, 320)  1280        conv4_block2_concat[0][0]        
__________________________________________________________________________________________________
conv4_block3_0_relu (Activation (None, 16, 16, 320)  0           conv4_block3_0_bn[0][0]          
__________________________________________________________________________________________________
conv4_block3_1_conv (Conv2D)    (None, 16, 16, 128)  40960       conv4_block3_0_relu[0][0]        
__________________________________________________________________________________________________
conv4_block3_1_bn (BatchNormali (None, 16, 16, 128)  512         conv4_block3_1_conv[0][0]        
__________________________________________________________________________________________________
conv4_block3_1_relu (Activation (None, 16, 16, 128)  0           conv4_block3_1_bn[0][0]          
__________________________________________________________________________________________________
conv4_block3_2_conv (Conv2D)    (None, 16, 16, 32)   36864       conv4_block3_1_relu[0][0]        
__________________________________________________________________________________________________
conv4_block3_concat (Concatenat (None, 16, 16, 352)  0           conv4_block2_concat[0][0]        
                                                                 conv4_block3_2_conv[0][0]        
__________________________________________________________________________________________________
conv4_block4_0_bn (BatchNormali (None, 16, 16, 352)  1408        conv4_block3_concat[0][0]        
__________________________________________________________________________________________________
conv4_block4_0_relu (Activation (None, 16, 16, 352)  0           conv4_block4_0_bn[0][0]          
__________________________________________________________________________________________________
conv4_block4_1_conv (Conv2D)    (None, 16, 16, 128)  45056       conv4_block4_0_relu[0][0]        
__________________________________________________________________________________________________
conv4_block4_1_bn (BatchNormali (None, 16, 16, 128)  512         conv4_block4_1_conv[0][0]        
__________________________________________________________________________________________________
conv4_block4_1_relu (Activation (None, 16, 16, 128)  0           conv4_block4_1_bn[0][0]          
__________________________________________________________________________________________________
conv4_block4_2_conv (Conv2D)    (None, 16, 16, 32)   36864       conv4_block4_1_relu[0][0]        
__________________________________________________________________________________________________
conv4_block4_concat (Concatenat (None, 16, 16, 384)  0           conv4_block3_concat[0][0]        
                                                                 conv4_block4_2_conv[0][0]        
__________________________________________________________________________________________________
conv4_block5_0_bn (BatchNormali (None, 16, 16, 384)  1536        conv4_block4_concat[0][0]        
__________________________________________________________________________________________________
conv4_block5_0_relu (Activation (None, 16, 16, 384)  0           conv4_block5_0_bn[0][0]          
__________________________________________________________________________________________________
conv4_block5_1_conv (Conv2D)    (None, 16, 16, 128)  49152       conv4_block5_0_relu[0][0]        
__________________________________________________________________________________________________
conv4_block5_1_bn (BatchNormali (None, 16, 16, 128)  512         conv4_block5_1_conv[0][0]        
__________________________________________________________________________________________________
conv4_block5_1_relu (Activation (None, 16, 16, 128)  0           conv4_block5_1_bn[0][0]          
__________________________________________________________________________________________________
conv4_block5_2_conv (Conv2D)    (None, 16, 16, 32)   36864       conv4_block5_1_relu[0][0]        
__________________________________________________________________________________________________
conv4_block5_concat (Concatenat (None, 16, 16, 416)  0           conv4_block4_concat[0][0]        
                                                                 conv4_block5_2_conv[0][0]        
__________________________________________________________________________________________________
conv4_block6_0_bn (BatchNormali (None, 16, 16, 416)  1664        conv4_block5_concat[0][0]        
__________________________________________________________________________________________________
conv4_block6_0_relu (Activation (None, 16, 16, 416)  0           conv4_block6_0_bn[0][0]          
__________________________________________________________________________________________________
conv4_block6_1_conv (Conv2D)    (None, 16, 16, 128)  53248       conv4_block6_0_relu[0][0]        
__________________________________________________________________________________________________
conv4_block6_1_bn (BatchNormali (None, 16, 16, 128)  512         conv4_block6_1_conv[0][0]        
__________________________________________________________________________________________________
conv4_block6_1_relu (Activation (None, 16, 16, 128)  0           conv4_block6_1_bn[0][0]          
__________________________________________________________________________________________________
conv4_block6_2_conv (Conv2D)    (None, 16, 16, 32)   36864       conv4_block6_1_relu[0][0]        
__________________________________________________________________________________________________
conv4_block6_concat (Concatenat (None, 16, 16, 448)  0           conv4_block5_concat[0][0]        
                                                                 conv4_block6_2_conv[0][0]        
__________________________________________________________________________________________________
conv4_block7_0_bn (BatchNormali (None, 16, 16, 448)  1792        conv4_block6_concat[0][0]        
__________________________________________________________________________________________________
conv4_block7_0_relu (Activation (None, 16, 16, 448)  0           conv4_block7_0_bn[0][0]          
__________________________________________________________________________________________________
conv4_block7_1_conv (Conv2D)    (None, 16, 16, 128)  57344       conv4_block7_0_relu[0][0]        
__________________________________________________________________________________________________
conv4_block7_1_bn (BatchNormali (None, 16, 16, 128)  512         conv4_block7_1_conv[0][0]        
__________________________________________________________________________________________________
conv4_block7_1_relu (Activation (None, 16, 16, 128)  0           conv4_block7_1_bn[0][0]          
__________________________________________________________________________________________________
conv4_block7_2_conv (Conv2D)    (None, 16, 16, 32)   36864       conv4_block7_1_relu[0][0]        
__________________________________________________________________________________________________
conv4_block7_concat (Concatenat (None, 16, 16, 480)  0           conv4_block6_concat[0][0]        
                                                                 conv4_block7_2_conv[0][0]        
__________________________________________________________________________________________________
conv4_block8_0_bn (BatchNormali (None, 16, 16, 480)  1920        conv4_block7_concat[0][0]        
__________________________________________________________________________________________________
conv4_block8_0_relu (Activation (None, 16, 16, 480)  0           conv4_block8_0_bn[0][0]          
__________________________________________________________________________________________________
conv4_block8_1_conv (Conv2D)    (None, 16, 16, 128)  61440       conv4_block8_0_relu[0][0]        
__________________________________________________________________________________________________
conv4_block8_1_bn (BatchNormali (None, 16, 16, 128)  512         conv4_block8_1_conv[0][0]        
__________________________________________________________________________________________________
conv4_block8_1_relu (Activation (None, 16, 16, 128)  0           conv4_block8_1_bn[0][0]          
__________________________________________________________________________________________________
conv4_block8_2_conv (Conv2D)    (None, 16, 16, 32)   36864       conv4_block8_1_relu[0][0]        
__________________________________________________________________________________________________
conv4_block8_concat (Concatenat (None, 16, 16, 512)  0           conv4_block7_concat[0][0]        
                                                                 conv4_block8_2_conv[0][0]        
__________________________________________________________________________________________________
conv4_block9_0_bn (BatchNormali (None, 16, 16, 512)  2048        conv4_block8_concat[0][0]        
__________________________________________________________________________________________________
conv4_block9_0_relu (Activation (None, 16, 16, 512)  0           conv4_block9_0_bn[0][0]          
__________________________________________________________________________________________________
conv4_block9_1_conv (Conv2D)    (None, 16, 16, 128)  65536       conv4_block9_0_relu[0][0]        
__________________________________________________________________________________________________
conv4_block9_1_bn (BatchNormali (None, 16, 16, 128)  512         conv4_block9_1_conv[0][0]        
__________________________________________________________________________________________________
conv4_block9_1_relu (Activation (None, 16, 16, 128)  0           conv4_block9_1_bn[0][0]          
__________________________________________________________________________________________________
conv4_block9_2_conv (Conv2D)    (None, 16, 16, 32)   36864       conv4_block9_1_relu[0][0]        
__________________________________________________________________________________________________
conv4_block9_concat (Concatenat (None, 16, 16, 544)  0           conv4_block8_concat[0][0]        
                                                                 conv4_block9_2_conv[0][0]        
__________________________________________________________________________________________________
conv4_block10_0_bn (BatchNormal (None, 16, 16, 544)  2176        conv4_block9_concat[0][0]        
__________________________________________________________________________________________________
conv4_block10_0_relu (Activatio (None, 16, 16, 544)  0           conv4_block10_0_bn[0][0]         
__________________________________________________________________________________________________
conv4_block10_1_conv (Conv2D)   (None, 16, 16, 128)  69632       conv4_block10_0_relu[0][0]       
__________________________________________________________________________________________________
conv4_block10_1_bn (BatchNormal (None, 16, 16, 128)  512         conv4_block10_1_conv[0][0]       
__________________________________________________________________________________________________
conv4_block10_1_relu (Activatio (None, 16, 16, 128)  0           conv4_block10_1_bn[0][0]         
__________________________________________________________________________________________________
conv4_block10_2_conv (Conv2D)   (None, 16, 16, 32)   36864       conv4_block10_1_relu[0][0]       
__________________________________________________________________________________________________
conv4_block10_concat (Concatena (None, 16, 16, 576)  0           conv4_block9_concat[0][0]        
                                                                 conv4_block10_2_conv[0][0]       
__________________________________________________________________________________________________
conv4_block11_0_bn (BatchNormal (None, 16, 16, 576)  2304        conv4_block10_concat[0][0]       
__________________________________________________________________________________________________
conv4_block11_0_relu (Activatio (None, 16, 16, 576)  0           conv4_block11_0_bn[0][0]         
__________________________________________________________________________________________________
conv4_block11_1_conv (Conv2D)   (None, 16, 16, 128)  73728       conv4_block11_0_relu[0][0]       
__________________________________________________________________________________________________
conv4_block11_1_bn (BatchNormal (None, 16, 16, 128)  512         conv4_block11_1_conv[0][0]       
__________________________________________________________________________________________________
conv4_block11_1_relu (Activatio (None, 16, 16, 128)  0           conv4_block11_1_bn[0][0]         
__________________________________________________________________________________________________
conv4_block11_2_conv (Conv2D)   (None, 16, 16, 32)   36864       conv4_block11_1_relu[0][0]       
__________________________________________________________________________________________________
conv4_block11_concat (Concatena (None, 16, 16, 608)  0           conv4_block10_concat[0][0]       
                                                                 conv4_block11_2_conv[0][0]       
__________________________________________________________________________________________________
conv4_block12_0_bn (BatchNormal (None, 16, 16, 608)  2432        conv4_block11_concat[0][0]       
__________________________________________________________________________________________________
conv4_block12_0_relu (Activatio (None, 16, 16, 608)  0           conv4_block12_0_bn[0][0]         
__________________________________________________________________________________________________
conv4_block12_1_conv (Conv2D)   (None, 16, 16, 128)  77824       conv4_block12_0_relu[0][0]       
__________________________________________________________________________________________________
conv4_block12_1_bn (BatchNormal (None, 16, 16, 128)  512         conv4_block12_1_conv[0][0]       
__________________________________________________________________________________________________
conv4_block12_1_relu (Activatio (None, 16, 16, 128)  0           conv4_block12_1_bn[0][0]         
__________________________________________________________________________________________________
conv4_block12_2_conv (Conv2D)   (None, 16, 16, 32)   36864       conv4_block12_1_relu[0][0]       
__________________________________________________________________________________________________
conv4_block12_concat (Concatena (None, 16, 16, 640)  0           conv4_block11_concat[0][0]       
                                                                 conv4_block12_2_conv[0][0]       
__________________________________________________________________________________________________
conv4_block13_0_bn (BatchNormal (None, 16, 16, 640)  2560        conv4_block12_concat[0][0]       
__________________________________________________________________________________________________
conv4_block13_0_relu (Activatio (None, 16, 16, 640)  0           conv4_block13_0_bn[0][0]         
__________________________________________________________________________________________________
conv4_block13_1_conv (Conv2D)   (None, 16, 16, 128)  81920       conv4_block13_0_relu[0][0]       
__________________________________________________________________________________________________
conv4_block13_1_bn (BatchNormal (None, 16, 16, 128)  512         conv4_block13_1_conv[0][0]       
__________________________________________________________________________________________________
conv4_block13_1_relu (Activatio (None, 16, 16, 128)  0           conv4_block13_1_bn[0][0]         
__________________________________________________________________________________________________
conv4_block13_2_conv (Conv2D)   (None, 16, 16, 32)   36864       conv4_block13_1_relu[0][0]       
__________________________________________________________________________________________________
conv4_block13_concat (Concatena (None, 16, 16, 672)  0           conv4_block12_concat[0][0]       
                                                                 conv4_block13_2_conv[0][0]       
__________________________________________________________________________________________________
conv4_block14_0_bn (BatchNormal (None, 16, 16, 672)  2688        conv4_block13_concat[0][0]       
__________________________________________________________________________________________________
conv4_block14_0_relu (Activatio (None, 16, 16, 672)  0           conv4_block14_0_bn[0][0]         
__________________________________________________________________________________________________
conv4_block14_1_conv (Conv2D)   (None, 16, 16, 128)  86016       conv4_block14_0_relu[0][0]       
__________________________________________________________________________________________________
conv4_block14_1_bn (BatchNormal (None, 16, 16, 128)  512         conv4_block14_1_conv[0][0]       
__________________________________________________________________________________________________
conv4_block14_1_relu (Activatio (None, 16, 16, 128)  0           conv4_block14_1_bn[0][0]         
__________________________________________________________________________________________________
conv4_block14_2_conv (Conv2D)   (None, 16, 16, 32)   36864       conv4_block14_1_relu[0][0]       
__________________________________________________________________________________________________
conv4_block14_concat (Concatena (None, 16, 16, 704)  0           conv4_block13_concat[0][0]       
                                                                 conv4_block14_2_conv[0][0]       
__________________________________________________________________________________________________
conv4_block15_0_bn (BatchNormal (None, 16, 16, 704)  2816        conv4_block14_concat[0][0]       
__________________________________________________________________________________________________
conv4_block15_0_relu (Activatio (None, 16, 16, 704)  0           conv4_block15_0_bn[0][0]         
__________________________________________________________________________________________________
conv4_block15_1_conv (Conv2D)   (None, 16, 16, 128)  90112       conv4_block15_0_relu[0][0]       
__________________________________________________________________________________________________
conv4_block15_1_bn (BatchNormal (None, 16, 16, 128)  512         conv4_block15_1_conv[0][0]       
__________________________________________________________________________________________________
conv4_block15_1_relu (Activatio (None, 16, 16, 128)  0           conv4_block15_1_bn[0][0]         
__________________________________________________________________________________________________
conv4_block15_2_conv (Conv2D)   (None, 16, 16, 32)   36864       conv4_block15_1_relu[0][0]       
__________________________________________________________________________________________________
conv4_block15_concat (Concatena (None, 16, 16, 736)  0           conv4_block14_concat[0][0]       
                                                                 conv4_block15_2_conv[0][0]       
__________________________________________________________________________________________________
conv4_block16_0_bn (BatchNormal (None, 16, 16, 736)  2944        conv4_block15_concat[0][0]       
__________________________________________________________________________________________________
conv4_block16_0_relu (Activatio (None, 16, 16, 736)  0           conv4_block16_0_bn[0][0]         
__________________________________________________________________________________________________
conv4_block16_1_conv (Conv2D)   (None, 16, 16, 128)  94208       conv4_block16_0_relu[0][0]       
__________________________________________________________________________________________________
conv4_block16_1_bn (BatchNormal (None, 16, 16, 128)  512         conv4_block16_1_conv[0][0]       
__________________________________________________________________________________________________
conv4_block16_1_relu (Activatio (None, 16, 16, 128)  0           conv4_block16_1_bn[0][0]         
__________________________________________________________________________________________________
conv4_block16_2_conv (Conv2D)   (None, 16, 16, 32)   36864       conv4_block16_1_relu[0][0]       
__________________________________________________________________________________________________
conv4_block16_concat (Concatena (None, 16, 16, 768)  0           conv4_block15_concat[0][0]       
                                                                 conv4_block16_2_conv[0][0]       
__________________________________________________________________________________________________
conv4_block17_0_bn (BatchNormal (None, 16, 16, 768)  3072        conv4_block16_concat[0][0]       
__________________________________________________________________________________________________
conv4_block17_0_relu (Activatio (None, 16, 16, 768)  0           conv4_block17_0_bn[0][0]         
__________________________________________________________________________________________________
conv4_block17_1_conv (Conv2D)   (None, 16, 16, 128)  98304       conv4_block17_0_relu[0][0]       
__________________________________________________________________________________________________
conv4_block17_1_bn (BatchNormal (None, 16, 16, 128)  512         conv4_block17_1_conv[0][0]       
__________________________________________________________________________________________________
conv4_block17_1_relu (Activatio (None, 16, 16, 128)  0           conv4_block17_1_bn[0][0]         
__________________________________________________________________________________________________
conv4_block17_2_conv (Conv2D)   (None, 16, 16, 32)   36864       conv4_block17_1_relu[0][0]       
__________________________________________________________________________________________________
conv4_block17_concat (Concatena (None, 16, 16, 800)  0           conv4_block16_concat[0][0]       
                                                                 conv4_block17_2_conv[0][0]       
__________________________________________________________________________________________________
conv4_block18_0_bn (BatchNormal (None, 16, 16, 800)  3200        conv4_block17_concat[0][0]       
__________________________________________________________________________________________________
conv4_block18_0_relu (Activatio (None, 16, 16, 800)  0           conv4_block18_0_bn[0][0]         
__________________________________________________________________________________________________
conv4_block18_1_conv (Conv2D)   (None, 16, 16, 128)  102400      conv4_block18_0_relu[0][0]       
__________________________________________________________________________________________________
conv4_block18_1_bn (BatchNormal (None, 16, 16, 128)  512         conv4_block18_1_conv[0][0]       
__________________________________________________________________________________________________
conv4_block18_1_relu (Activatio (None, 16, 16, 128)  0           conv4_block18_1_bn[0][0]         
__________________________________________________________________________________________________
conv4_block18_2_conv (Conv2D)   (None, 16, 16, 32)   36864       conv4_block18_1_relu[0][0]       
__________________________________________________________________________________________________
conv4_block18_concat (Concatena (None, 16, 16, 832)  0           conv4_block17_concat[0][0]       
                                                                 conv4_block18_2_conv[0][0]       
__________________________________________________________________________________________________
conv4_block19_0_bn (BatchNormal (None, 16, 16, 832)  3328        conv4_block18_concat[0][0]       
__________________________________________________________________________________________________
conv4_block19_0_relu (Activatio (None, 16, 16, 832)  0           conv4_block19_0_bn[0][0]         
__________________________________________________________________________________________________
conv4_block19_1_conv (Conv2D)   (None, 16, 16, 128)  106496      conv4_block19_0_relu[0][0]       
__________________________________________________________________________________________________
conv4_block19_1_bn (BatchNormal (None, 16, 16, 128)  512         conv4_block19_1_conv[0][0]       
__________________________________________________________________________________________________
conv4_block19_1_relu (Activatio (None, 16, 16, 128)  0           conv4_block19_1_bn[0][0]         
__________________________________________________________________________________________________
conv4_block19_2_conv (Conv2D)   (None, 16, 16, 32)   36864       conv4_block19_1_relu[0][0]       
__________________________________________________________________________________________________
conv4_block19_concat (Concatena (None, 16, 16, 864)  0           conv4_block18_concat[0][0]       
                                                                 conv4_block19_2_conv[0][0]       
__________________________________________________________________________________________________
conv4_block20_0_bn (BatchNormal (None, 16, 16, 864)  3456        conv4_block19_concat[0][0]       
__________________________________________________________________________________________________
conv4_block20_0_relu (Activatio (None, 16, 16, 864)  0           conv4_block20_0_bn[0][0]         
__________________________________________________________________________________________________
conv4_block20_1_conv (Conv2D)   (None, 16, 16, 128)  110592      conv4_block20_0_relu[0][0]       
__________________________________________________________________________________________________
conv4_block20_1_bn (BatchNormal (None, 16, 16, 128)  512         conv4_block20_1_conv[0][0]       
__________________________________________________________________________________________________
conv4_block20_1_relu (Activatio (None, 16, 16, 128)  0           conv4_block20_1_bn[0][0]         
__________________________________________________________________________________________________
conv4_block20_2_conv (Conv2D)   (None, 16, 16, 32)   36864       conv4_block20_1_relu[0][0]       
__________________________________________________________________________________________________
conv4_block20_concat (Concatena (None, 16, 16, 896)  0           conv4_block19_concat[0][0]       
                                                                 conv4_block20_2_conv[0][0]       
__________________________________________________________________________________________________
conv4_block21_0_bn (BatchNormal (None, 16, 16, 896)  3584        conv4_block20_concat[0][0]       
__________________________________________________________________________________________________
conv4_block21_0_relu (Activatio (None, 16, 16, 896)  0           conv4_block21_0_bn[0][0]         
__________________________________________________________________________________________________
conv4_block21_1_conv (Conv2D)   (None, 16, 16, 128)  114688      conv4_block21_0_relu[0][0]       
__________________________________________________________________________________________________
conv4_block21_1_bn (BatchNormal (None, 16, 16, 128)  512         conv4_block21_1_conv[0][0]       
__________________________________________________________________________________________________
conv4_block21_1_relu (Activatio (None, 16, 16, 128)  0           conv4_block21_1_bn[0][0]         
__________________________________________________________________________________________________
conv4_block21_2_conv (Conv2D)   (None, 16, 16, 32)   36864       conv4_block21_1_relu[0][0]       
__________________________________________________________________________________________________
conv4_block21_concat (Concatena (None, 16, 16, 928)  0           conv4_block20_concat[0][0]       
                                                                 conv4_block21_2_conv[0][0]       
__________________________________________________________________________________________________
conv4_block22_0_bn (BatchNormal (None, 16, 16, 928)  3712        conv4_block21_concat[0][0]       
__________________________________________________________________________________________________
conv4_block22_0_relu (Activatio (None, 16, 16, 928)  0           conv4_block22_0_bn[0][0]         
__________________________________________________________________________________________________
conv4_block22_1_conv (Conv2D)   (None, 16, 16, 128)  118784      conv4_block22_0_relu[0][0]       
__________________________________________________________________________________________________
conv4_block22_1_bn (BatchNormal (None, 16, 16, 128)  512         conv4_block22_1_conv[0][0]       
__________________________________________________________________________________________________
conv4_block22_1_relu (Activatio (None, 16, 16, 128)  0           conv4_block22_1_bn[0][0]         
__________________________________________________________________________________________________
conv4_block22_2_conv (Conv2D)   (None, 16, 16, 32)   36864       conv4_block22_1_relu[0][0]       
__________________________________________________________________________________________________
conv4_block22_concat (Concatena (None, 16, 16, 960)  0           conv4_block21_concat[0][0]       
                                                                 conv4_block22_2_conv[0][0]       
__________________________________________________________________________________________________
conv4_block23_0_bn (BatchNormal (None, 16, 16, 960)  3840        conv4_block22_concat[0][0]       
__________________________________________________________________________________________________
conv4_block23_0_relu (Activatio (None, 16, 16, 960)  0           conv4_block23_0_bn[0][0]         
__________________________________________________________________________________________________
conv4_block23_1_conv (Conv2D)   (None, 16, 16, 128)  122880      conv4_block23_0_relu[0][0]       
__________________________________________________________________________________________________
conv4_block23_1_bn (BatchNormal (None, 16, 16, 128)  512         conv4_block23_1_conv[0][0]       
__________________________________________________________________________________________________
conv4_block23_1_relu (Activatio (None, 16, 16, 128)  0           conv4_block23_1_bn[0][0]         
__________________________________________________________________________________________________
conv4_block23_2_conv (Conv2D)   (None, 16, 16, 32)   36864       conv4_block23_1_relu[0][0]       
__________________________________________________________________________________________________
conv4_block23_concat (Concatena (None, 16, 16, 992)  0           conv4_block22_concat[0][0]       
                                                                 conv4_block23_2_conv[0][0]       
__________________________________________________________________________________________________
conv4_block24_0_bn (BatchNormal (None, 16, 16, 992)  3968        conv4_block23_concat[0][0]       
__________________________________________________________________________________________________
conv4_block24_0_relu (Activatio (None, 16, 16, 992)  0           conv4_block24_0_bn[0][0]         
__________________________________________________________________________________________________
conv4_block24_1_conv (Conv2D)   (None, 16, 16, 128)  126976      conv4_block24_0_relu[0][0]       
__________________________________________________________________________________________________
conv4_block24_1_bn (BatchNormal (None, 16, 16, 128)  512         conv4_block24_1_conv[0][0]       
__________________________________________________________________________________________________
conv4_block24_1_relu (Activatio (None, 16, 16, 128)  0           conv4_block24_1_bn[0][0]         
__________________________________________________________________________________________________
conv4_block24_2_conv (Conv2D)   (None, 16, 16, 32)   36864       conv4_block24_1_relu[0][0]       
__________________________________________________________________________________________________
conv4_block24_concat (Concatena (None, 16, 16, 1024) 0           conv4_block23_concat[0][0]       
                                                                 conv4_block24_2_conv[0][0]       
__________________________________________________________________________________________________
pool4_bn (BatchNormalization)   (None, 16, 16, 1024) 4096        conv4_block24_concat[0][0]       
__________________________________________________________________________________________________
pool4_relu (Activation)         (None, 16, 16, 1024) 0           pool4_bn[0][0]                   
__________________________________________________________________________________________________
pool4_conv (Conv2D)             (None, 16, 16, 512)  524288      pool4_relu[0][0]                 
__________________________________________________________________________________________________
pool4_pool (AveragePooling2D)   (None, 8, 8, 512)    0           pool4_conv[0][0]                 
__________________________________________________________________________________________________
conv5_block1_0_bn (BatchNormali (None, 8, 8, 512)    2048        pool4_pool[0][0]                 
__________________________________________________________________________________________________
conv5_block1_0_relu (Activation (None, 8, 8, 512)    0           conv5_block1_0_bn[0][0]          
__________________________________________________________________________________________________
conv5_block1_1_conv (Conv2D)    (None, 8, 8, 128)    65536       conv5_block1_0_relu[0][0]        
__________________________________________________________________________________________________
conv5_block1_1_bn (BatchNormali (None, 8, 8, 128)    512         conv5_block1_1_conv[0][0]        
__________________________________________________________________________________________________
conv5_block1_1_relu (Activation (None, 8, 8, 128)    0           conv5_block1_1_bn[0][0]          
__________________________________________________________________________________________________
conv5_block1_2_conv (Conv2D)    (None, 8, 8, 32)     36864       conv5_block1_1_relu[0][0]        
__________________________________________________________________________________________________
conv5_block1_concat (Concatenat (None, 8, 8, 544)    0           pool4_pool[0][0]                 
                                                                 conv5_block1_2_conv[0][0]        
__________________________________________________________________________________________________
conv5_block2_0_bn (BatchNormali (None, 8, 8, 544)    2176        conv5_block1_concat[0][0]        
__________________________________________________________________________________________________
conv5_block2_0_relu (Activation (None, 8, 8, 544)    0           conv5_block2_0_bn[0][0]          
__________________________________________________________________________________________________
conv5_block2_1_conv (Conv2D)    (None, 8, 8, 128)    69632       conv5_block2_0_relu[0][0]        
__________________________________________________________________________________________________
conv5_block2_1_bn (BatchNormali (None, 8, 8, 128)    512         conv5_block2_1_conv[0][0]        
__________________________________________________________________________________________________
conv5_block2_1_relu (Activation (None, 8, 8, 128)    0           conv5_block2_1_bn[0][0]          
__________________________________________________________________________________________________
conv5_block2_2_conv (Conv2D)    (None, 8, 8, 32)     36864       conv5_block2_1_relu[0][0]        
__________________________________________________________________________________________________
conv5_block2_concat (Concatenat (None, 8, 8, 576)    0           conv5_block1_concat[0][0]        
                                                                 conv5_block2_2_conv[0][0]        
__________________________________________________________________________________________________
conv5_block3_0_bn (BatchNormali (None, 8, 8, 576)    2304        conv5_block2_concat[0][0]        
__________________________________________________________________________________________________
conv5_block3_0_relu (Activation (None, 8, 8, 576)    0           conv5_block3_0_bn[0][0]          
__________________________________________________________________________________________________
conv5_block3_1_conv (Conv2D)    (None, 8, 8, 128)    73728       conv5_block3_0_relu[0][0]        
__________________________________________________________________________________________________
conv5_block3_1_bn (BatchNormali (None, 8, 8, 128)    512         conv5_block3_1_conv[0][0]        
__________________________________________________________________________________________________
conv5_block3_1_relu (Activation (None, 8, 8, 128)    0           conv5_block3_1_bn[0][0]          
__________________________________________________________________________________________________
conv5_block3_2_conv (Conv2D)    (None, 8, 8, 32)     36864       conv5_block3_1_relu[0][0]        
__________________________________________________________________________________________________
conv5_block3_concat (Concatenat (None, 8, 8, 608)    0           conv5_block2_concat[0][0]        
                                                                 conv5_block3_2_conv[0][0]        
__________________________________________________________________________________________________
conv5_block4_0_bn (BatchNormali (None, 8, 8, 608)    2432        conv5_block3_concat[0][0]        
__________________________________________________________________________________________________
conv5_block4_0_relu (Activation (None, 8, 8, 608)    0           conv5_block4_0_bn[0][0]          
__________________________________________________________________________________________________
conv5_block4_1_conv (Conv2D)    (None, 8, 8, 128)    77824       conv5_block4_0_relu[0][0]        
__________________________________________________________________________________________________
conv5_block4_1_bn (BatchNormali (None, 8, 8, 128)    512         conv5_block4_1_conv[0][0]        
__________________________________________________________________________________________________
conv5_block4_1_relu (Activation (None, 8, 8, 128)    0           conv5_block4_1_bn[0][0]          
__________________________________________________________________________________________________
conv5_block4_2_conv (Conv2D)    (None, 8, 8, 32)     36864       conv5_block4_1_relu[0][0]        
__________________________________________________________________________________________________
conv5_block4_concat (Concatenat (None, 8, 8, 640)    0           conv5_block3_concat[0][0]        
                                                                 conv5_block4_2_conv[0][0]        
__________________________________________________________________________________________________
conv5_block5_0_bn (BatchNormali (None, 8, 8, 640)    2560        conv5_block4_concat[0][0]        
__________________________________________________________________________________________________
conv5_block5_0_relu (Activation (None, 8, 8, 640)    0           conv5_block5_0_bn[0][0]          
__________________________________________________________________________________________________
conv5_block5_1_conv (Conv2D)    (None, 8, 8, 128)    81920       conv5_block5_0_relu[0][0]        
__________________________________________________________________________________________________
conv5_block5_1_bn (BatchNormali (None, 8, 8, 128)    512         conv5_block5_1_conv[0][0]        
__________________________________________________________________________________________________
conv5_block5_1_relu (Activation (None, 8, 8, 128)    0           conv5_block5_1_bn[0][0]          
__________________________________________________________________________________________________
conv5_block5_2_conv (Conv2D)    (None, 8, 8, 32)     36864       conv5_block5_1_relu[0][0]        
__________________________________________________________________________________________________
conv5_block5_concat (Concatenat (None, 8, 8, 672)    0           conv5_block4_concat[0][0]        
                                                                 conv5_block5_2_conv[0][0]        
__________________________________________________________________________________________________
conv5_block6_0_bn (BatchNormali (None, 8, 8, 672)    2688        conv5_block5_concat[0][0]        
__________________________________________________________________________________________________
conv5_block6_0_relu (Activation (None, 8, 8, 672)    0           conv5_block6_0_bn[0][0]          
__________________________________________________________________________________________________
conv5_block6_1_conv (Conv2D)    (None, 8, 8, 128)    86016       conv5_block6_0_relu[0][0]        
__________________________________________________________________________________________________
conv5_block6_1_bn (BatchNormali (None, 8, 8, 128)    512         conv5_block6_1_conv[0][0]        
__________________________________________________________________________________________________
conv5_block6_1_relu (Activation (None, 8, 8, 128)    0           conv5_block6_1_bn[0][0]          
__________________________________________________________________________________________________
conv5_block6_2_conv (Conv2D)    (None, 8, 8, 32)     36864       conv5_block6_1_relu[0][0]        
__________________________________________________________________________________________________
conv5_block6_concat (Concatenat (None, 8, 8, 704)    0           conv5_block5_concat[0][0]        
                                                                 conv5_block6_2_conv[0][0]        
__________________________________________________________________________________________________
conv5_block7_0_bn (BatchNormali (None, 8, 8, 704)    2816        conv5_block6_concat[0][0]        
__________________________________________________________________________________________________
conv5_block7_0_relu (Activation (None, 8, 8, 704)    0           conv5_block7_0_bn[0][0]          
__________________________________________________________________________________________________
conv5_block7_1_conv (Conv2D)    (None, 8, 8, 128)    90112       conv5_block7_0_relu[0][0]        
__________________________________________________________________________________________________
conv5_block7_1_bn (BatchNormali (None, 8, 8, 128)    512         conv5_block7_1_conv[0][0]        
__________________________________________________________________________________________________
conv5_block7_1_relu (Activation (None, 8, 8, 128)    0           conv5_block7_1_bn[0][0]          
__________________________________________________________________________________________________
conv5_block7_2_conv (Conv2D)    (None, 8, 8, 32)     36864       conv5_block7_1_relu[0][0]        
__________________________________________________________________________________________________
conv5_block7_concat (Concatenat (None, 8, 8, 736)    0           conv5_block6_concat[0][0]        
                                                                 conv5_block7_2_conv[0][0]        
__________________________________________________________________________________________________
conv5_block8_0_bn (BatchNormali (None, 8, 8, 736)    2944        conv5_block7_concat[0][0]        
__________________________________________________________________________________________________
conv5_block8_0_relu (Activation (None, 8, 8, 736)    0           conv5_block8_0_bn[0][0]          
__________________________________________________________________________________________________
conv5_block8_1_conv (Conv2D)    (None, 8, 8, 128)    94208       conv5_block8_0_relu[0][0]        
__________________________________________________________________________________________________
conv5_block8_1_bn (BatchNormali (None, 8, 8, 128)    512         conv5_block8_1_conv[0][0]        
__________________________________________________________________________________________________
conv5_block8_1_relu (Activation (None, 8, 8, 128)    0           conv5_block8_1_bn[0][0]          
__________________________________________________________________________________________________
conv5_block8_2_conv (Conv2D)    (None, 8, 8, 32)     36864       conv5_block8_1_relu[0][0]        
__________________________________________________________________________________________________
conv5_block8_concat (Concatenat (None, 8, 8, 768)    0           conv5_block7_concat[0][0]        
                                                                 conv5_block8_2_conv[0][0]        
__________________________________________________________________________________________________
conv5_block9_0_bn (BatchNormali (None, 8, 8, 768)    3072        conv5_block8_concat[0][0]        
__________________________________________________________________________________________________
conv5_block9_0_relu (Activation (None, 8, 8, 768)    0           conv5_block9_0_bn[0][0]          
__________________________________________________________________________________________________
conv5_block9_1_conv (Conv2D)    (None, 8, 8, 128)    98304       conv5_block9_0_relu[0][0]        
__________________________________________________________________________________________________
conv5_block9_1_bn (BatchNormali (None, 8, 8, 128)    512         conv5_block9_1_conv[0][0]        
__________________________________________________________________________________________________
conv5_block9_1_relu (Activation (None, 8, 8, 128)    0           conv5_block9_1_bn[0][0]          
__________________________________________________________________________________________________
conv5_block9_2_conv (Conv2D)    (None, 8, 8, 32)     36864       conv5_block9_1_relu[0][0]        
__________________________________________________________________________________________________
conv5_block9_concat (Concatenat (None, 8, 8, 800)    0           conv5_block8_concat[0][0]        
                                                                 conv5_block9_2_conv[0][0]        
__________________________________________________________________________________________________
conv5_block10_0_bn (BatchNormal (None, 8, 8, 800)    3200        conv5_block9_concat[0][0]        
__________________________________________________________________________________________________
conv5_block10_0_relu (Activatio (None, 8, 8, 800)    0           conv5_block10_0_bn[0][0]         
__________________________________________________________________________________________________
conv5_block10_1_conv (Conv2D)   (None, 8, 8, 128)    102400      conv5_block10_0_relu[0][0]       
__________________________________________________________________________________________________
conv5_block10_1_bn (BatchNormal (None, 8, 8, 128)    512         conv5_block10_1_conv[0][0]       
__________________________________________________________________________________________________
conv5_block10_1_relu (Activatio (None, 8, 8, 128)    0           conv5_block10_1_bn[0][0]         
__________________________________________________________________________________________________
conv5_block10_2_conv (Conv2D)   (None, 8, 8, 32)     36864       conv5_block10_1_relu[0][0]       
__________________________________________________________________________________________________
conv5_block10_concat (Concatena (None, 8, 8, 832)    0           conv5_block9_concat[0][0]        
                                                                 conv5_block10_2_conv[0][0]       
__________________________________________________________________________________________________
conv5_block11_0_bn (BatchNormal (None, 8, 8, 832)    3328        conv5_block10_concat[0][0]       
__________________________________________________________________________________________________
conv5_block11_0_relu (Activatio (None, 8, 8, 832)    0           conv5_block11_0_bn[0][0]         
__________________________________________________________________________________________________
conv5_block11_1_conv (Conv2D)   (None, 8, 8, 128)    106496      conv5_block11_0_relu[0][0]       
__________________________________________________________________________________________________
conv5_block11_1_bn (BatchNormal (None, 8, 8, 128)    512         conv5_block11_1_conv[0][0]       
__________________________________________________________________________________________________
conv5_block11_1_relu (Activatio (None, 8, 8, 128)    0           conv5_block11_1_bn[0][0]         
__________________________________________________________________________________________________
conv5_block11_2_conv (Conv2D)   (None, 8, 8, 32)     36864       conv5_block11_1_relu[0][0]       
__________________________________________________________________________________________________
conv5_block11_concat (Concatena (None, 8, 8, 864)    0           conv5_block10_concat[0][0]       
                                                                 conv5_block11_2_conv[0][0]       
__________________________________________________________________________________________________
conv5_block12_0_bn (BatchNormal (None, 8, 8, 864)    3456        conv5_block11_concat[0][0]       
__________________________________________________________________________________________________
conv5_block12_0_relu (Activatio (None, 8, 8, 864)    0           conv5_block12_0_bn[0][0]         
__________________________________________________________________________________________________
conv5_block12_1_conv (Conv2D)   (None, 8, 8, 128)    110592      conv5_block12_0_relu[0][0]       
__________________________________________________________________________________________________
conv5_block12_1_bn (BatchNormal (None, 8, 8, 128)    512         conv5_block12_1_conv[0][0]       
__________________________________________________________________________________________________
conv5_block12_1_relu (Activatio (None, 8, 8, 128)    0           conv5_block12_1_bn[0][0]         
__________________________________________________________________________________________________
conv5_block12_2_conv (Conv2D)   (None, 8, 8, 32)     36864       conv5_block12_1_relu[0][0]       
__________________________________________________________________________________________________
conv5_block12_concat (Concatena (None, 8, 8, 896)    0           conv5_block11_concat[0][0]       
                                                                 conv5_block12_2_conv[0][0]       
__________________________________________________________________________________________________
conv5_block13_0_bn (BatchNormal (None, 8, 8, 896)    3584        conv5_block12_concat[0][0]       
__________________________________________________________________________________________________
conv5_block13_0_relu (Activatio (None, 8, 8, 896)    0           conv5_block13_0_bn[0][0]         
__________________________________________________________________________________________________
conv5_block13_1_conv (Conv2D)   (None, 8, 8, 128)    114688      conv5_block13_0_relu[0][0]       
__________________________________________________________________________________________________
conv5_block13_1_bn (BatchNormal (None, 8, 8, 128)    512         conv5_block13_1_conv[0][0]       
__________________________________________________________________________________________________
conv5_block13_1_relu (Activatio (None, 8, 8, 128)    0           conv5_block13_1_bn[0][0]         
__________________________________________________________________________________________________
conv5_block13_2_conv (Conv2D)   (None, 8, 8, 32)     36864       conv5_block13_1_relu[0][0]       
__________________________________________________________________________________________________
conv5_block13_concat (Concatena (None, 8, 8, 928)    0           conv5_block12_concat[0][0]       
                                                                 conv5_block13_2_conv[0][0]       
__________________________________________________________________________________________________
conv5_block14_0_bn (BatchNormal (None, 8, 8, 928)    3712        conv5_block13_concat[0][0]       
__________________________________________________________________________________________________
conv5_block14_0_relu (Activatio (None, 8, 8, 928)    0           conv5_block14_0_bn[0][0]         
__________________________________________________________________________________________________
conv5_block14_1_conv (Conv2D)   (None, 8, 8, 128)    118784      conv5_block14_0_relu[0][0]       
__________________________________________________________________________________________________
conv5_block14_1_bn (BatchNormal (None, 8, 8, 128)    512         conv5_block14_1_conv[0][0]       
__________________________________________________________________________________________________
conv5_block14_1_relu (Activatio (None, 8, 8, 128)    0           conv5_block14_1_bn[0][0]         
__________________________________________________________________________________________________
conv5_block14_2_conv (Conv2D)   (None, 8, 8, 32)     36864       conv5_block14_1_relu[0][0]       
__________________________________________________________________________________________________
conv5_block14_concat (Concatena (None, 8, 8, 960)    0           conv5_block13_concat[0][0]       
                                                                 conv5_block14_2_conv[0][0]       
__________________________________________________________________________________________________
conv5_block15_0_bn (BatchNormal (None, 8, 8, 960)    3840        conv5_block14_concat[0][0]       
__________________________________________________________________________________________________
conv5_block15_0_relu (Activatio (None, 8, 8, 960)    0           conv5_block15_0_bn[0][0]         
__________________________________________________________________________________________________
conv5_block15_1_conv (Conv2D)   (None, 8, 8, 128)    122880      conv5_block15_0_relu[0][0]       
__________________________________________________________________________________________________
conv5_block15_1_bn (BatchNormal (None, 8, 8, 128)    512         conv5_block15_1_conv[0][0]       
__________________________________________________________________________________________________
conv5_block15_1_relu (Activatio (None, 8, 8, 128)    0           conv5_block15_1_bn[0][0]         
__________________________________________________________________________________________________
conv5_block15_2_conv (Conv2D)   (None, 8, 8, 32)     36864       conv5_block15_1_relu[0][0]       
__________________________________________________________________________________________________
conv5_block15_concat (Concatena (None, 8, 8, 992)    0           conv5_block14_concat[0][0]       
                                                                 conv5_block15_2_conv[0][0]       
__________________________________________________________________________________________________
conv5_block16_0_bn (BatchNormal (None, 8, 8, 992)    3968        conv5_block15_concat[0][0]       
__________________________________________________________________________________________________
conv5_block16_0_relu (Activatio (None, 8, 8, 992)    0           conv5_block16_0_bn[0][0]         
__________________________________________________________________________________________________
conv5_block16_1_conv (Conv2D)   (None, 8, 8, 128)    126976      conv5_block16_0_relu[0][0]       
__________________________________________________________________________________________________
conv5_block16_1_bn (BatchNormal (None, 8, 8, 128)    512         conv5_block16_1_conv[0][0]       
__________________________________________________________________________________________________
conv5_block16_1_relu (Activatio (None, 8, 8, 128)    0           conv5_block16_1_bn[0][0]         
__________________________________________________________________________________________________
conv5_block16_2_conv (Conv2D)   (None, 8, 8, 32)     36864       conv5_block16_1_relu[0][0]       
__________________________________________________________________________________________________
conv5_block16_concat (Concatena (None, 8, 8, 1024)   0           conv5_block15_concat[0][0]       
                                                                 conv5_block16_2_conv[0][0]       
__________________________________________________________________________________________________
bn (BatchNormalization)         (None, 8, 8, 1024)   4096        conv5_block16_concat[0][0]       
__________________________________________________________________________________________________
relu (Activation)               (None, 8, 8, 1024)   0           bn[0][0]                         
__________________________________________________________________________________________________
flatten (Flatten)               (None, 65536)        0           relu[0][0]                       
__________________________________________________________________________________________________
dense (Dense)                   (None, 512)          33554944    flatten[0][0]                    
__________________________________________________________________________________________________
dense_1 (Dense)                 (None, 29)           14877       dense[0][0]                      
==================================================================================================
Total params: 40,607,325
Trainable params: 40,505,821
Non-trainable params: 101,504
__________________________________________________________________________________________________
Epoch 1/10
  1/317 [..............................] - ETA: 1s - loss: 4.6585
…
